static/converted_model_fused.tflite (tflite, 13856 bytes, 15 tensors)

model/lstm/TensorArrayV2_1 f4 [1, 1, 16]
0.0 0.0 0.0 0.0 0.0 0.0 0.0 0.0
0.0 0.0 0.0 0.0 0.0 0.0 0.0 0.0
00000000: 0000 0000 0000 0000 0000 0000 0000 0000
00000010: 0000 0000 0000 0000 0000 0000 0000 0000
00000020: 0000 0000 0000 0000 0000 0000 0000 0000
00000030: 0000 0000 0000 0000 0000 0000 0000 0000

model/lstm/zeros f4 [1, 16]
0.0 0.0 0.0 0.0 0.0 0.0 0.0 0.0
0.0 0.0 0.0 0.0 0.0 0.0 0.0 0.0
00000000: 0000 0000 0000 0000 0000 0000 0000 0000
00000010: 0000 0000 0000 0000 0000 0000 0000 0000
00000020: 0000 0000 0000 0000 0000 0000 0000 0000
00000030: 0000 0000 0000 0000 0000 0000 0000 0000

model/dense/MatMul f4 [1, 16]
0.28676894 0.65134084 -0.69970804 1.0906503 0.7007501 0.58892864 -0.49186888 -0.46529293
-1.098904 -0.59556496 -0.005656109 0.8007642 -0.54873455 -0.4335364 -0.8368646 -1.0120621
00000000: 61d3 923e 46be 263f 1120 33bf 6e9a 8b3f
00000010: 5c64 333f 07c4 163f 3dd6 fbbe e03a eebe
00000020: e3a8 8cbf f276 18bf e256 b9bb e2fe 4c3f
00000030: de79 0cbf 7cf8 ddbe c23c 56bf 408b 81bf

model/lstm/while/lstm_cell/split_1 f4 [16]
0.30882296 -0.5410464 -0.37939778 -0.9270495 -0.35505542 -0.5736742 -0.04035565 -0.8016156
0.37839377 -0.40665483 -0.17606814 -0.677395 -0.20516685 -0.6493978 -0.13527197 -0.608639
00000000: 0b1e 9e3e 0482 0abf 6d40 c2be 1e53 6dbf
00000010: d3c9 b5be 50dc 12bf f74b 25bd ae36 4dbf
00000020: d4bc c13e 1035 d0be 354b 34be c269 2dbf
00000030: 4217 52be ef3e 26bf bc84 0abe c4cf 1bbf

model/lstm/while/lstm_cell/split_11 f4 [16]
-0.756495 0.19897869 0.33248976 0.2975243 0.22927894 -0.99905324 0.038413525 0.08487574
0.9528082 -0.039016444 0.100882895 -0.7032681 0.5234582 0.70183146 0.9369695 -0.14367649
00000000: a8a9 41bf 12c1 4b3e 193c aa3e 1b55 983e
00000010: 19c8 6a3e f4c1 7fbf 8057 1d3d 55d3 ad3d
00000020: 3deb 733f b5cf 1fbd b19b ce3d 6109 34bf
00000030: 5b01 063f 3aab 333f 3cdd 6f3f ee1f 13be

model/lstm/while/lstm_cell/split_12 f4 [16]
0.6374011 -0.24094163 -0.19082972 1.4047489 2.267431 -1.0325433 1.9439435 1.7368134
-0.2773867 -0.71682537 0.709827 -0.96571684 -0.37839496 -0.962099 -0.6408145 0.47749892
00000000: b82c 233f 67b9 76be de68 43be d0ce b33f
00000010: 971d 1140 612a 84bf 24d3 f83f e74f de3f
00000020: a105 8ebe de81 37bf 39b7 353f 3839 77bf
00000030: fcbc c1be 1f4c 76bf 6b0c 24bf bd7a f43e

model/lstm/while/lstm_cell/split_13 f4 [16]
-0.40468338 -0.27616048 -0.1851048 -0.92363226 -1.5072209 -0.88471425 -0.9550282 -1.0259297
-0.08646443 -0.98465854 -1.2670717 -1.588967 -0.16086446 -1.1849947 -0.4087705 -0.51241374
00000000: a932 cfbe e864 8dbe 1d8c 3dbe 2a73 6cbf
00000010: 9dec c0bf a27c 62bf ba7c 74bf aa51 83bf
00000020: 4314 b1bd 9512 7cbf 682f a2bf 4563 cbbf
00000030: a7b9 24be e8ad 97bf 5e4a d1be 8c2d 03bf

model/lstm/while/lstm_cell/MatMul_41 f4 [16, 16]
-0.23720837 0.7998122 -0.2342372 -1.3025644 -0.72017735 -0.34596598 0.516392 0.1771333
0.5222107 0.46706447 -1.1113024 -0.43984106 0.6376485 -0.07502875 0.7117039 2.1577222
0.73379207 -0.98496175 0.421275 -0.52125925 -0.57722425 -0.39611408 -1.2072811 -0.11533676
-1.4177561 0.26241896 -0.35348853 0.7354782 0.8072683 -1.5417675 0.06384276 -0.014506614
-0.37798974 0.3383673 -0.17325099 0.48827824 0.5828125 -0.1306789 -1.0899472 -0.20435277
-0.14733732 -0.6728416 -0.46586826 -0.25128624 0.017040249 -0.7836562 0.31997043 -0.30005056
-0.2547145 -1.0192008 1.0309325 -0.45922258 1.2079664 -1.0737664 -1.3982627 -0.49373233
0.87966204 0.47021386 1.673118 -1.3302923 0.6714626 0.7607418 1.0888815 0.6230757
1.4291472 -1.7208608 1.3041952 -1.1299577 -0.19395742 1.4223381 -3.3024595 1.3214247
0.21408084 1.4218298 2.909904 0.35389224 2.8948085 -1.0384878 -0.9391567 0.3380249
-0.12714185 0.6569302 -0.45196533 -0.27823052 -0.09095343 0.52131546 0.30043262 -0.20272426
0.21616782 -0.5153848 -1.2212718 0.23851614 0.3153859 -1.0945346 -0.17075984 0.41157568
-0.19942477 1.0744841 -0.34974152 -1.4279389 -1.798462 0.024640558 -0.36932588 0.65811586
-0.5199739 0.20119807 -1.9897213 0.8489988 1.1737883 -1.288973 -0.31200033 0.8035684
0.40705255 -3.4780607 1.503138 -0.8441218 -0.2657778 -0.19169651 -1.0700023 -0.35848472
0.86376244 1.9758503 1.6012999 -0.6019756 1.0756062 0.11408049 0.9125263 1.3445401
1.4722732 1.4623069 -1.2738172 0.44647983 0.22722432 0.5929248 0.49362695 -0.32002643
0.44704294 -2.9007893 -1.0060623 -0.19506745 -2.4677653 -0.50701773 -0.23665625 -0.22864118
0.7798485 -0.23142076 -0.03657266 0.37074724 0.51074916 -0.21282244 -0.53374386 -0.8215333
-0.3759369 0.6428691 0.7230831 -0.40459365 -0.4015827 0.4986446 0.49086654 -0.13609059
3.7482634 0.03533658 -0.08060167 -1.529681 -3.4352684 2.814981 -0.806983 0.948738
-1.059318 1.3219031 -0.23564072 2.0280843 0.80636466 -2.7966218 -1.7520208 0.560907
1.1133397 0.53497577 -0.33326226 -0.5206951 -0.61198634 1.6552157 0.5319828 0.763421
-0.39378566 0.027591465 0.005337807 0.9532286 0.5471364 -0.9646853 -0.77260125 -0.02403589
-0.35876417 0.46876803 0.11248354 0.4871974 0.82883674 -0.84024984 -1.0766871 -0.7012062
0.091327496 -0.034215476 -0.1413903 -0.34532514 0.17524183 -0.5844392 0.9833537 0.04957757
0.09915719 0.18319948 -0.40490887 -0.86045665 -0.6324355 0.48452184 1.0006853 0.95816076
0.08245577 1.1939044 -0.0463209 0.07264738 0.08145216 0.28955728 -0.34623003 0.874246
-0.35981685 0.6830159 -0.53178275 0.5006729 -0.17014635 0.44225207 0.28817374 -0.12981565
-0.060900096 -1.3094746 -1.4347777 0.3823069 -0.18149239 -1.3629525 -0.16078426 -0.040712927
-0.116688795 -1.2369915 0.53127855 -0.018677128 0.46045974 -0.67435783 0.17902777 -0.054653637
0.00015999735 0.40957692 1.2244868 -0.4831038 0.19695607 0.35753784 0.2913611 0.08059018
00000000: c0e6 72be 7ec0 4c3f e0db 6fbe 6eba a6bf
00000010: 8b5d 38bf 7422 b1be 4432 043f 6f62 353e
00000020: 9aaf 053f 1323 ef3e 283f 8ebf d932 e1be
00000030: ef3c 233f aca8 99bd 3a32 363f 1f18 0a40
00000040: ccd9 3b3f 7426 7cbf 5bb1 d73e 3f71 05bf
00000050: f8c4 13bf 77cf cabe 3088 9abf ae35 ecbd
00000060: 0879 b5bf c75b 863e 73fc b4be 4d48 3c3f
00000070: 23a9 4e3f a358 c5bf febf 823d 26ad 6dbc
00000080: df87 c1be 7b3e ad3e b568 31be 9bff f93e
00000090: 3333 153f b1d0 05be 6483 8bbf da41 51be
000000a0: 98df 16be 593f 2cbf 4986 eebe 97a8 80be
000000b0: fe97 8b3c b19d 48bf 2ad3 a33e 3aa0 99be
000000c0: f069 82be 2c75 82bf 99f5 833f 391f ebbe
000000d0: a59e 9a3f 2d71 89bf 46fa b2bf 7cca fcbe
000000e0: 8831 613f dfbf f03e bb28 d63f 0547 aabf
000000f0: f9e4 2b3f f9bf 423f 7860 8b3f e481 1f3f
00000100: 4cee b63f 2b45 dcbf deef a63f 74a2 90bf
00000110: c69c 46be 2d0f b63f 7f5b 53c0 7224 a93f
00000120: 0238 5b3e 85fe b53f de3b 3a40 5d31 b53e
00000130: 8b44 3940 2bed 84bf 936c 70bf 9a11 ad3e
00000140: 7931 02be 942c 283f 0068 e7be 3b74 8ebe
00000150: cb45 babd ee74 053f 4ed2 993e f396 4fbe
00000160: 195b 5d3e 42f0 03bf a252 9cbf 933d 743e
00000170: 437a a13e b619 8cbf abdb 2ebe 0cba d23e
00000180: 0236 4cbe b288 893f 5211 b3be b4c6 b6bf
00000190: 0134 e6bf ffda c93c 4818 bdbe 487a 283f
000001a0: 021d 05bf de06 4e3e 30af febf fc57 593f
000001b0: b23e 963f 11fd a4bf 82be 9fbe a9b6 4d3f
000001c0: 3169 d03e 8c98 5ec0 d366 c03f 5e18 58bf
000001d0: 0714 88be 174c 44be d6f5 88bf 4f8b b7be
000001e0: 891f 5d3f aae8 fc3f 65f7 cc3f 131b 1abf
000001f0: 77ad 893f 08a3 e93d 539b 693f e419 ac3f
00000200: 7373 bc3f df2c bb3f 710c a3bf 0199 e43e
00000210: 7ead 683e ebc9 173f acbc fc3e 81da a3be
00000220: d0e2 e43e 88a6 39c0 a6c6 80bf c3bf 47be
00000230: deef 1dc0 eacb 01bf 0456 72be ea20 6abe
00000240: 27a4 473f 90f9 6cbe 37cd 15bd 95d2 bd3e
00000250: 75c0 023f 20ee 59be 70a3 08bf 0250 52bf
00000260: cd7a c0be 1293 243f f91b 393f e626 cfbe
00000270: 3f9c cdbe 584e ff3e dc52 fb3e 555b 0bbe
00000280: 8ce3 6f40 17bd 103d 7d12 a5bd 96cc c3bf
00000290: 70db 5bc0 a628 3440 7096 4ebf 7ee0 723f
000002a0: bb97 87bf 1f34 a93f cd4b 71be 22cc 0140
000002b0: ea6d 4e3f dafb 32c0 3842 e0bf 9a97 0f3f
000002c0: ea81 8e3f 2cf4 083f 5aa1 aabe 464c 05bf
000002d0: 23ab 1cbf 1cde d33f 0630 083f 8f6f 433f
000002e0: 469e c9be 7f07 e23c c5e8 ae3b ca06 743f
000002f0: 2211 0c3f 9ef5 76bf 32c9 45bf eae6 c4bc
00000300: f0af b7be 5d02 f03e c55d e63d f071 f93e
00000310: a52e 543f 9d1a 57bf e2d0 89bf 4082 33bf
00000320: e909 bb3d 8725 0cbd 9ec8 10be 75ce b0be
00000330: 9872 333e cf9d 15bf 11bd 7b3f da11 4b3d
00000340: ed12 cb3d a598 3b3e 3750 cfbe e346 5cbf
00000350: 4be7 21bf 3f13 f83e 7516 803f 064a 753f
00000360: 92de a83d dcd1 983f fcba 3dbd 26c8 943d
00000370: 64d0 a63d da40 943e 1045 b1be 96ce 5f3f
00000380: ea39 b8be 21da 2e3f ea22 08bf 192c 003f
00000390: d83a 2ebe dd6e e23e 828b 933e 65ee 04be
000003a0: 6172 79bd dd9c a7bf cca6 b7bf bbbd c33e
000003b0: 24d9 39be 3a75 aebf a1a4 24be 99c2 26bd
000003c0: 89fa eebd bd55 9ebf df01 083f c700 99bc
000003d0: 61c1 eb3e b7a2 2cbf 0e53 373e 7edc 5fbd
000003e0: f6c4 2739 11b4 d13e fcbb 9c3f 6259 f7be
000003f0: daae 493e 330f b73e 482d 953e 770c a53d

model/lstm/while/lstm_cell/MatMul_5 f4 [16, 16]
-0.21834503 -0.079196684 0.40146583 -0.42452893 0.016467081 0.263935 0.5053544 0.50568736
0.13771462 0.4210584 -0.35221544 0.28890282 0.81897056 -0.47984764 0.27555367 0.39691293
0.14416933 -0.0063298047 -0.090732254 1.2702583 -0.557007 0.16723855 -0.68948567 -0.61614865
-1.3058698 -0.23898837 -0.33646333 1.4339743 -0.08114899 -1.1802659 -0.29666334 -0.14206427
-0.7247848 0.0743681 0.12492546 0.42149273 0.18672583 -0.13606863 -0.44036633 -0.3842963
-0.5620258 -0.64288336 -0.37152398 0.45804623 -0.019682473 -0.9749491 0.1547719 -0.12102397
-0.7251845 1.9367522 -1.223589 1.0649269 0.3803425 -0.40985912 0.9032522 -2.5132608
-0.09123436 -1.3953459 -1.0095748 -0.40367562 -1.4541754 0.15291071 0.58117235 -0.50038546
-1.0168527 0.17534895 0.36345434 0.9774062 -1.3044814 0.23316224 -0.22001597 -2.2643466
0.22214893 -0.23828061 -0.07489176 0.6089856 0.53688926 -0.5629208 0.0039648456 -0.3040529
0.56754667 -0.1734264 0.50938946 -0.09137697 0.061093047 0.5121541 0.19510001 -0.06589953
-0.08325499 0.096429445 -0.19322252 0.6189026 0.84443665 -0.5750337 -0.29039523 0.32174757
-2.1210659 1.7123151 -0.44307038 0.9544465 -0.46762985 -0.21531129 0.6165155 -1.8885925
0.4773207 -1.9272162 -1.3851483 -0.015108288 -0.031666964 0.3974538 0.8402198 -0.36488923
0.19889656 -1.6766137 0.85209346 -0.08014492 0.9038521 -1.2701539 -1.5953445 1.2890561
0.92608947 0.33798766 1.3689147 -0.38111082 0.14320926 0.3491264 1.1555175 -0.36597982
-0.23960729 0.002687829 0.15003085 -0.23549888 0.26413485 -0.18512586 -0.0127298 0.24416296
0.43455255 -0.19744459 0.876752 -0.36186218 0.060533483 0.49069014 0.13681331 -0.06993977
0.6712543 -0.25762165 0.044336844 0.6989555 0.9633213 -0.12070277 -0.10430067 -0.8736764
-0.3030395 0.64507985 0.4407294 0.101063125 -0.49353912 -0.39444625 -0.21549815 0.080315776
0.77853304 -0.46953663 0.7730979 -0.1574864 -2.2068179 1.2558314 0.3960276 -0.35640076
-1.0673276 0.91841376 0.26673537 1.7136401 0.35518372 -1.7237015 -1.1483297 -0.15403827
0.3956698 -0.32869878 0.26418322 0.021633312 0.014889952 0.18123275 0.18947303 0.94639665
-0.69690907 0.16112222 0.3661501 0.05445083 0.45040333 -0.4409457 -0.30708268 -0.1583958
-0.9461745 0.7064353 -0.5061129 0.4115694 0.4070503 -0.38933524 0.0033436988 -0.82469153
0.01485989 -0.06075994 -0.5380181 0.17561471 0.20275788 -0.9011109 0.63980067 0.52179897
0.23168865 -0.7092455 0.46817142 0.15837415 0.54843074 0.33929425 0.09761456 0.5177063
-0.51923937 0.76215035 0.7289247 0.36069196 0.654679 0.12275032 -0.45785618 0.25693056
-0.32040912 0.13708618 0.42745426 -0.113026895 0.5634875 -0.6311698 -0.30758443 0.118996285
0.40685692 -0.1976521 -0.21177383 -0.23281099 0.6345897 -0.24245137 0.36239836 0.0889174
-0.2895518 -1.4854717 1.0896418 -0.37474012 0.49064478 -0.43203205 -0.93098736 -0.022525191
0.12516215 0.7616654 1.3693955 -0.21115296 1.0419402 0.4884189 0.28576803 0.6475199
00000000: d795 5fbe df31 a2bd ee8c cd3e db5b d9be
00000010: f9e5 863c 7d22 873e e85e 013f ba74 013f
00000020: 1005 0d3e f794 d73e 9555 b4be 12eb 933e
00000030: 0ea8 513f 97ae f5be 5f15 8d3e 2c38 cb3e
00000040: 20a1 133e 406a cfbb d5d1 b9bd d397 a23f
00000050: 0398 0ebf 9540 2b3e 2282 30bf ebbb 1dbf
00000060: be26 a7bf 5eb9 74be ec44 acbe 788c b73f
00000070: 7131 a6bd f412 97bf 42e4 97be 4c79 11be
00000080: 7f8b 39bf 4d4e 983d ebd8 ff3d e5cd d73e
00000090: 0e35 3f3e 9355 0bbe b277 e1be 7cc2 c4be
000000a0: ece0 0fbf 0194 24bf 6438 bebe 0985 ea3e
000000b0: 233d a1bc 4496 79bf 867c 1e3e 6adb f7bd
000000c0: b1a5 39bf 7fe7 f73f 909e 9cbf 864f 883f
000000d0: 41bc c23e 0ed9 d1be 893b 673f 44d9 20c0
000000e0: 15d9 babd b29a b2bf bf39 81bf 92ae cebe
000000f0: 6b22 babf a094 1c3e b6c7 143f 4319 00bf
00000100: 3b28 82bf ad8e 333e b016 ba3e 4b37 7a3f
00000110: 3ff9 a6bf 15c2 6e3e de4b 61be 0eeb 10c0
00000120: 027b 633e d5ff 73be da60 99bd 7be6 1b3f
00000130: 9371 093f 941b 10bf 89eb 813b d2ac 9bbe
00000140: bd4a 113f b196 31be 5967 023f d923 bbbd
00000150: b43c 7a3d 881c 033f 4cc8 473e 55f6 86bd
00000160: 9881 aabd cd7c c53d 20dc 45be 6770 1e3f
00000170: 002d 583f 6935 13bf afae 94be 19bc a43e
00000180: 8bbf 07c0 242d db3f 1fda e2be 9b56 743f
00000190: 2e6d efbe 907a 5cbe f6d3 1d3f 66bd f1bf
000001a0: 6163 f43e 05af f6bf 8a4c b1bf c188 77bc
000001b0: 38b5 01bd 117f cb3e a518 573f c3d2 babe
000001c0: 8aab 4b3e 479b d6bf cc22 5a3f 0523 a4bd
000001d0: da62 673f 6794 a2bf 4034 ccbf caff a43f
000001e0: 3314 6d3f b80c ad3e 9938 af3f f520 c3be
000001f0: 73a5 123e b2c0 b23e ffe7 933f b561 bbbe
00000200: 9d5b 75be 4a26 303b b0a1 193e 9e26 71be
00000210: af3c 873e a291 3dbe a790 50bc db05 7a3e
00000220: ac7d de3e ea2e 4abe d272 603f 0046 b9be
00000230: f5f1 773d bd3b fb3e ca18 0c3e 953c 8fbd
00000240: 52d7 2b3f fce6 83be 8d9a 353d bfee 323f
00000250: 3a9c 763f 0433 f7bd 979b d5bd 42a9 5fbf
00000260: fe27 9bbe f423 253f 49a7 e13e 2ffa ce3d
00000270: 29b1 fcbe dcf4 c9be 8cab 5cbe 997c a43d
00000280: f14d 473f 1b67 f0be bee9 453f 1d44 21be
00000290: 813c 0dc0 15bf a03f 21c4 ca3e 297a b6be
000002a0: 319e 88bf 2a1d 6b3f 8a91 883e 8f58 db3f
000002b0: a4da b53e 40a2 dcbf 78fc 92bf 35bc 1dbe
000002c0: 3b95 ca3e 354b a8be 0643 873e 5838 b13c
000002d0: fcf4 733c 1495 393e 3805 423e 0d47 723f
000002e0: a268 32bf 39fd 243e 0778 bb3e d507 5f3d
000002f0: 449b e63e a3c3 e1be f139 9dbe 8232 22be
00000300: 7e38 72bf f2d8 343f 9d90 01bf 39b9 d23e
00000310: e668 d03e f356 c7be f521 5b3b fc1e 53bf
00000320: e576 733c 6adf 78bd 8ebb 09bf 58d4 333e
00000330: c39f 4f3e 34af 66bf fac9 233f 9e94 053f
00000340: ca3f 6d3e 1d91 35bf 2ab4 ef3e d52c 223e
00000350: f565 0c3f fab7 ad3e 24ea c73d 6688 043f
00000360: dfec 04bf 491c 433f cf9a 3a3f 9eac b83e
00000370: 0b99 273f 8564 fb3d 206c eabe 678c 833e
00000380: aa0c a4be 5260 0c3e 49db da3e a57a e7bd
00000390: b840 103f 5894 21bf b57b 9dbe 53b4 f33d
000003a0: 8d4f d03e 5065 4abe 3ddb 58be 0166 6ebe
000003b0: 7874 223f 2c45 78be 478c b93e 531a b63d
000003c0: 2240 94be f023 bebf 6279 8b3f f0dd bfbe
000003d0: cb35 fb3e 4e33 ddbe 3055 6ebf c086 b8bc
000003e0: 822a 003e 81fc 423f 5a48 af3f 7b38 58be
000003f0: 4c5e 853f 0b12 fa3e 3050 923e ddc3 253f

model/lstm/while/lstm_cell/MatMul_6 f4 [16, 16]
-0.69116145 -1.2754917 0.7001246 0.05529086 0.42772904 0.13728431 -0.30020243 -0.41113392
0.23655866 0.47754303 0.91276056 -0.008057368 -0.03393519 0.012637486 0.13492578 -0.072802745
-0.5304974 0.2309828 -0.21744718 -0.87364334 -0.5783591 0.19822666 0.71953154 0.49743816
-0.100761086 0.3851017 -0.37292466 0.37318066 -0.19561829 0.3807724 -0.09997655 0.062441394
-0.5390563 -0.04762801 -0.0064385193 0.25276294 0.5455887 0.35648784 -0.23684411 -0.16762221
0.2023202 -0.26311502 -0.6845489 0.14571965 -0.044053715 -0.33608553 -0.020744931 -0.14628905
0.18289286 0.0035247263 0.05632653 -0.32356808 0.08368062 -0.18647462 -0.41617653 -1.1410859
0.27656117 -0.133382 0.22283395 -0.8237272 -0.1606101 0.25173676 0.32813737 -0.16459082
-1.0211045 -0.060642466 0.51738083 -0.14840479 -0.2627684 -0.8068782 0.8005431 -0.18223764
0.23899515 0.58601886 -0.3655714 -0.062809765 0.70125043 0.33575025 0.45661756 0.26303834
-0.06967322 -0.042788453 0.4408795 0.11036191 -0.11263567 -0.30520886 0.14051698 -0.20440221
0.08400021 -0.041290693 -0.094270274 -0.18055178 0.14220653 -0.03268117 0.01960764 -0.01629908
1.0669042 -0.045223154 -0.6585763 0.08772723 0.0732327 0.69766474 0.6327315 0.0845074
-1.0703441 -0.094477914 0.53589714 0.55359286 -0.42799696 -0.98432255 -0.9857727 -0.32183802
0.33988327 -0.64537376 0.19810537 0.16085082 -0.16560453 0.2985184 0.4813901 -0.33677778
-0.9077068 0.8115019 0.32792965 0.66501147 0.0423587 -0.14427342 -0.15649152 0.16021557
-0.41944757 0.37452343 0.12129318 -0.121209145 -0.18070295 -0.013696539 0.36106026 0.3069626
-0.044058792 0.3049744 -0.62228346 -0.07823492 0.40213224 0.07213946 0.05614495 -0.07602541
0.14326888 0.30480945 0.016062727 0.057250045 -0.15607986 -0.121412575 -0.23920748 -0.5129165
0.44310746 0.17685671 0.35110512 0.55313474 0.040995277 -0.20985804 0.13743402 0.20031211
-0.4213987 -0.16114886 -0.018617032 0.46635205 0.28733745 -0.98051375 0.9728411 -0.5171223
0.031984963 0.30758098 0.19547206 -0.8419188 -0.1734542 1.0325954 0.21393348 -0.13205978
0.46006337 -0.3551699 -0.26748806 -0.09626659 -0.6410961 0.22486989 0.6616468 0.10687185
-0.06262367 0.2365158 -0.38623065 -0.026122067 0.24702168 -0.31154382 -0.39344376 0.024018023
-0.4941801 -0.44538647 0.042057518 -0.15321574 -0.43796396 -0.07380376 0.25183004 0.1831278
-0.20262095 0.5009202 -1.2497694 0.40003744 -0.10303512 0.24816631 0.21912254 0.22709167
0.108590625 0.15363955 -0.63431084 0.40528455 -0.21853401 -0.16218925 0.10721749 -0.6107462
0.39303768 0.3287788 -0.019302025 -0.08910224 -0.55213416 -0.4621513 -0.06450155 -0.08448961
0.31094927 0.009102497 -0.08230571 0.057625577 0.20865208 0.06485911 -0.27265677 0.057881813
-0.04590453 -0.2045339 0.08169327 -0.008951986 -0.22712967 0.029405776 -0.26980022 0.10986512
0.20725536 0.81948453 -0.31748962 0.20135236 -0.017120128 0.1882498 0.020367537 -0.45986325
0.27423733 -0.90344775 -1.1343386 -0.12937239 -0.5511417 -0.01620918 -0.06844517 -0.10257254
00000000: f5ef 30bf 5043 a3bf 5e3b 333f ab78 623d
00000010: 4dff da3e 4294 0c3e 22b4 99be 2580 d2be
00000020: 6f3c 723e 8580 f43e adaa 693f 0d03 04bc
00000030: a0ff 0abd 750d 4f3c fc29 0a3e 9b19 95bd
00000040: adce 07bf c186 6c3e 79aa 5ebe 17a7 5fbf
00000050: 580f 14bf eefb 4a3e 3833 383f 37b0 fe3e
00000060: d45b cebd 0d2c c53e fbef bebe 8911 bf3e
00000070: 2950 48be 9af4 c23e 81c0 ccbd 8cc2 7f3d
00000080: 98ff 09bf 9715 43bd 37fa d2bb 256a 813e
00000090: b3ab 0b3f 9385 b63e 4387 72be 28a5 2bbe
000000a0: 072d 4f3e 03b7 86be 993e 2fbf 8837 153e
000000b0: ab71 34bd 6713 acbe 46f1 a9bc cccc 15be
000000c0: 4448 3b3e 18ff 663b a6b6 663d b7aa a5be
000000d0: bf60 ab3d 34f3 3ebe 1715 d5be 1a0f 92bf
000000e0: 6d99 8d3e 4a95 08be 952e 643e c9df 52bf
000000f0: f976 24be a4e3 803e 9f01 a83e 7f8a 28be
00000100: 8db3 82bf 3c64 78bd 1273 043f 6df7 17be
00000110: 9489 86be 928f 4ebf 65f0 4c3f 819c 3abe
00000120: 25bb 743e 5505 163f 2d2c bbbe 68a2 80bd
00000130: 2685 333f 75e7 ab3e c7c9 e93e f6ac 863e
00000140: d5b0 8ebd f242 2fbd f5ba e13e 6d05 e23d
00000150: 88ad e6bd 5644 9cbe afe3 0f3e d04e 51be
00000160: 4d08 ac3d 6e20 29bd c610 c1bd 91e2 38be
00000170: 979e 113e b1dc 05bd 34a0 a03c a685 85bc
00000180: 5190 883f ea3b 39bd 7598 28bf 55aa b33d
00000190: 07fb 953d 289a 323f b1fa 213f 3712 ad3d
000001a0: 0901 89bf a37d c1bd 8e30 093f 43b8 0d3f
000001b0: 6b22 dbbe 90fc 7bbf 9a5b 7cbf f4c7 a4be
000001c0: 2e05 ae3e 3737 25bf 22dc 4a3e 14b6 243e
000001d0: 3c94 29be 67d7 983e c378 f63e 236e acbe
000001e0: 795f 68bf 97be 4f3f 65e6 a73e 313e 2a3f
000001f0: 5180 2d3d 69bc 13be 503f 20be 8d0f 243e
00000200: d5c1 d6be 89c1 bf3e 8f68 f83d 803c f8bd
00000210: 320a 39be 7367 60bc e4dc b83e 342a 9d3e
00000220: fe76 34bd 9b25 9c3e f84d 1fbf a139 a0bd
00000230: 47e4 cd3e dabd 933d 3ff8 653d 36b3 9bbd
00000240: 14b5 123e fc0f 9c3e fb95 833c 067f 6a3d
00000250: 66d3 1fbe 28a7 f8bd cef2 74be 7f4e 03bf
00000260: fbde e23e ed19 353e 0dc4 b33e 3d9a 0d3f
00000270: aaea 273d 07e5 56be 81bb 0c3e 9e1e 4d3e
00000280: 92c1 d7be 3504 25be bf82 98bc b2c5 ee3e
00000290: e51d 933e f302 7bbf 1d0c 793f 2162 04bf
000002a0: aa02 033d 417b 9d3e d429 483e fe87 57bf
000002b0: fa9d 31be 162c 843f 6111 5b3e ae3a 07be
000002c0: 6d8d eb3e d4d8 b5be 32f4 88be 6b27 c5bd
000002d0: e01e 24bf 4b44 663e af61 293f a1df da3d
000002e0: d740 80bd 3331 723e 06c0 c5be f2fd d5bc
000002f0: 40f3 7c3e ac82 9fbe 7671 c9be 72c1 c43c
00000300: 2d05 fdbe b209 e4be 8144 2c3d 96e4 1cbe
00000310: d03c e0be 6d26 97bd deef 803e db85 3b3e
00000320: de7b 4fbe 4e3c 003f 72f8 9fbf b5d1 cc3e
00000330: 1404 d3bd 4f1f 7e3e a961 603e b88a 683e
00000340: c364 de3d b053 1d3e 3262 22bf 7581 cf3e
00000350: 61c7 5fbe f014 26be d894 db3d dd59 1cbf
00000360: 3c3c c93e b255 a83e 481f 9ebc 3c7b b6bd
00000370: aa58 0dbf 189f ecbe 6319 84bd e308 adbd
00000380: be34 9f3e a422 153c e58f a8bd cc08 6c3d
00000390: e4a8 553e dad4 843d ab99 8bbe 7b15 6d3d
000003a0: 6306 3cbd 5671 51be cd4e a73d 5aab 12bc
000003b0: ae94 68be 62e4 f03c 4123 8abe f700 e13d
000003c0: c03a 543e bdc9 513f 008e a2be 502f 4e3e
000003d0: 833f 8cbc 8ec4 403e d2d9 a63c 3273 ebbe
000003e0: d668 8c3e 5a48 67bf 0232 91bf 327a 04be
000003f0: 9f17 0dbf 1dc9 84bc fb2c 8cbd 8d11 d2bd

model/lstm/while/lstm_cell/MatMul_7 f4 [16, 16]
0.0011634051 0.46237883 0.44331935 -0.71863216 -0.029899945 0.06336925 -0.16416347 0.34497744
0.59086883 -0.06542053 -0.7184574 0.114309 0.5815981 -0.3723807 0.0470647 0.4312837
0.196295 -0.30822852 -0.0360244 -0.09761088 -0.37223986 -0.1532897 -0.33142626 -0.439201
-0.48145702 0.61856127 0.012019821 0.020804051 0.15578969 -0.40901843 0.018751927 0.36013675
0.22981028 0.017201768 -0.007949378 0.055214856 -0.21333832 -0.12025758 -0.18378991 -0.14247392
-0.15644842 0.060069412 -0.16970837 0.24281394 -0.025031114 -0.08478296 -0.19855039 0.22860435
1.0275053 0.27535942 -0.17813444 0.12804905 -0.05798585 0.6003637 -0.04066167 0.079257905
-0.4439014 -0.29442537 -0.39438054 0.39839712 -0.23308937 -0.552397 -0.46146575 0.17926465
-0.37069896 0.7543029 -0.9018874 -0.008646979 -0.52307665 0.72692716 0.04916557 -0.59656304
-0.042174578 -0.37437436 -0.7976101 0.70828605 -0.42203116 -0.5931927 -0.49737743 -0.025130773
0.06504219 0.45335856 -0.5990084 -0.47280666 -0.15665562 0.0053524505 -0.05969582 -0.07495363
0.01849894 -0.16475719 -0.42764723 -0.10811734 -0.20894231 -0.26374573 -0.25982013 0.64509207
-0.885727 1.3110192 -0.112394415 -0.008104519 -0.31515935 -0.7820558 0.48123932 -0.5305506
0.2281136 -0.98145694 -1.780455 0.014075846 -0.123178884 0.7062745 0.19945014 -0.036430355
0.32474592 0.67629695 -0.42244947 0.25798777 0.17134665 -0.023751263 0.14327691 0.53660434
0.901473 -0.866822 -0.123217106 -0.41392753 -0.13949548 -0.39836097 0.293967 -0.28388306
0.17218982 1.4943155 -0.8447602 -0.20919165 -0.7921137 0.15642953 0.31516084 0.2932399
-0.012954027 -0.4956817 -0.20080887 0.3584132 -0.31109574 -0.5470777 -0.4610312 0.031140752
0.13497446 -0.32793114 0.10258376 0.06729804 0.12515374 0.13942973 0.32966748 -0.4316738
0.15137345 0.40480226 0.6969468 -0.38930765 0.13549438 0.34895548 -0.4593509 -0.15971282
-0.35531187 -0.1268483 0.02775298 -0.18036282 -0.31514916 -0.8949057 0.32801297 0.23575191
-0.0701909 0.3748406 -0.1079462 0.13522078 0.1778058 0.5852883 -0.13387701 -0.17055063
0.008877531 -0.35249308 0.009170399 0.32099652 0.17595616 0.056182817 0.35600725 0.28632244
-0.17904893 -0.10751107 -0.38890302 0.032015756 0.3615258 -0.008658496 0.008408756 -0.01970524
-0.4404886 0.5007284 -0.18040825 0.51995486 0.038286004 -0.19902468 -0.5283999 -0.9231389
0.67210114 -0.34922254 -0.48020536 0.23059876 0.04796421 0.044859286 0.7488286 -0.29900557
-0.03207378 -0.27161998 -0.016537046 -0.7463223 0.04295732 0.16186687 0.18320613 0.74813056
0.028233845 0.6502412 0.58385956 -0.1740134 0.07289815 -0.019922076 -0.06251044 0.577652
-0.14144371 0.5996343 -0.710109 0.5993286 0.06240853 -0.19473447 0.43627095 -0.51463526
-0.05954568 -0.6131042 -0.5060007 0.010379219 -0.4741468 0.1053312 0.017437013 0.29275095
-0.014515827 -0.022658134 0.0024246252 -0.6071142 0.059432488 -0.13681841 -0.25391704 0.23321624
0.45368126 0.6066317 0.4042483 -0.9109037 0.1941484 0.30205825 0.1747454 0.28588533
00000000: 667d 983a ebbc ec3e c1fa e23e 47f8 37bf
00000010: bbf0 f4bc bdc7 813d 781a 28be e2a0 b03e
00000020: 2e43 173f 33fb 85bd d3ec 37bf d61a ea3d
00000030: 9de3 143f afa8 bebe eac6 403d 38d1 dc3e
00000040: 8e01 493e 21d0 9dbe 528e 13bd 37e8 c7bd
00000050: 3996 bebe faf7 1cbe b4b0 a9be f4de e0be
00000060: 8981 f6be 085a 1e3f c9ee 443c 426d aa3c
00000070: 5587 1f3e dd6a d1be a49d 993c d863 b83e
00000080: 6353 6b3e b9ea 8c3c 1c3e 02bc f928 623d
00000090: 5c75 5abe 9b49 f6bd 6c33 3cbe afe4 11be
000000a0: 0434 20be 580b 763d 08c8 2dbe 38a4 783e
000000b0: 0d0e cdbc b0a2 adbd cb50 4bbe 4217 6a3e
000000c0: 4b85 833f e9fb 8c3e e068 36be 4a1f 033e
000000d0: 9282 6dbd 6fb1 193f da8c 26bd f851 a23d
000000e0: 0b47 e3be ecbe 96be 3fec c9be b5fa cb3e
000000f0: fbae 6ebe e469 0dbf 3d45 ecbe 2791 373e
00000100: 41cc bdbe ff19 413f 18e2 66bf 0fac 0dbc
00000110: 5ae8 05bf e617 3a3f d661 493d 5bb8 18bf
00000120: 40bf 2cbd ffad bfbe 2d30 4cbf 3c52 353f
00000130: 7814 d8be 7adb 17bf 41a8 febe 0ddf cdbc
00000140: d734 853d 9d1e e83e 9d58 19bf b713 f2be
00000150: 556a 20be 9c63 af3b 9b83 74bd 4a81 99bd
00000160: 178b 973c 1cb6 28be 94f4 dabe a06c ddbd
00000170: f9f4 55be ae09 87be 2507 85be c124 253f
00000180: 01bf 62bf 7acf a73f 0b2f e6bd d1c8 04bc
00000190: 915c a1be cf34 48bf 0065 f63e 2ad2 07bf
000001a0: 9d96 693e c340 7bbf f3e5 e3bf 619e 663c
000001b0: 3645 fcbd 68ce 343f a83c 4c3e ff37 15bd
000001c0: 1945 a63e cc21 2d3f 4c4b d8be f916 843e
000001d0: 7f75 2f3e 0292 c2bc 2fb7 123e e75e 093f
000001e0: efc6 663f 0ce8 5dbf 4059 fcbd 4fee d3be
000001f0: e7d7 0ebe f8f5 cbbe d882 963e 1f59 91be
00000200: 8752 303e bb45 bf3f 3442 58bf 5636 56be
00000210: f7c7 4abf 102f 203e c35c a13e 8a23 963e
00000220: 213d 54bc fec9 fdbe d7a0 4dbe ef81 b73e
00000230: f147 9fbe 490d 0cbf 480c ecbe e41a ff3c
00000240: bf36 0a3e 97e6 a7be 6f17 d23d 8ed3 893d
00000250: 4d28 003e abc6 0e3e 2dca a83e 5904 ddbe
00000260: a401 1b3e 3e42 cf3e 1b6b 323f 5553 c7be
00000270: 0abf 0a3e 4baa b23e 0b30 ebbe c28b 23be
00000280: 70eb b5be 85e4 01be 385a e33c 08b1 38be
00000290: 3b5b a1be 8a18 65bf 51f1 a73e f368 713e
000002a0: 3fc0 8fbd 1beb bf3e e612 ddbd 5177 0a3e
000002b0: b912 363e 74d5 153f 0e17 09be d3a4 2ebe
000002c0: 1073 113c f979 b4be 713f 163c a859 a43e
000002d0: da2d 343e f41f 663d 9546 b63e db98 923e
000002e0: 9a58 37be c42e dcbd 4c1e c7be f422 033d
000002f0: e919 b93e 5ddc 0dbc e1c4 093c e26c a1bc
00000300: b987 e1be bd2f 003f f1bc 38be c31b 053f
00000310: c9d1 1c3d 20cd 4bbe 3745 07bf d552 6cbf
00000320: d20e 2c3f 4ccd b2be 7add f5be 1522 6c3e
00000330: 1f76 443d 5fbe 373d 3bb3 3f3f 4217 99be
00000340: cc5f 03bd c611 8bbe b378 87bc fa0e 3fbf
00000350: 04f4 2f3d 6ec0 253e 639a 3b3e 7c85 3f3f
00000360: aa4a e73c 3576 263f d277 153f 9230 32be
00000370: a04b 953d 9f33 a3bc 7905 80bd 00e1 133f
00000380: 9fd6 10be a281 193f b4c9 35bf 996d 193f
00000390: 16a0 7f3d 7968 47be e85e df3e 23bf 03bf
000003a0: 2ce6 73bd 66f4 1cbf 4389 01bf 9a0d 2a3c
000003b0: 5fc3 f2be e2b7 d73d 11d8 8e3c 74e3 953e
000003c0: cbd3 6dbc 8d9d b9bc 76e6 1e3b d66b 1bbf
000003d0: 7b6f 733d 201a 0cbe 6a01 82be 3dd0 6e3e
000003e0: e948 e83e 374c 1b3f a2f9 ce3e fc30 69bf
000003f0: d7ce 463e 61a7 9a3e 75f0 323e 905f 923e

model/lstm/while/lstm_cell/MatMul f4 [16, 1]
0.90274376 -1.0371286 -0.46915644 -0.8024123 -0.78701514 0.95652467 -0.25943223 -1.7479862
2.1148448 -0.83277386 -0.34096184 0.7648426 -0.4869587 1.0263698 0.9756671 -0.12736689
00000000: 371a 673f a1c0 84bf 4635 f0be e46a 4dbf
00000010: d379 49bf cdde 743f 4dd4 84be 03be dfbf
00000020: 9e59 0740 ab30 55bf 8d92 aebe bacc 433f
00000030: a752 f9be 1660 833f 52c5 793f 776c 02be

model/lstm/while/lstm_cell/MatMul_1 f4 [16, 1]
0.3679768 -0.10512169 -0.6407827 1.2143754 0.5036188 -0.11207986 2.9685993 0.61484313
-0.54041296 0.7591477 0.095332906 0.021132633 0.8625453 0.19417955 -1.2636976 0.3947731
00000000: 7567 bc3e 0a4a d7bd 560a 24bf a770 9b3f
00000010: 29ed 003f 208a e5bd 88fd 3d40 5c66 1d3f
00000020: 8158 0abf 8157 423f e63d c33d 581e ad3c
00000030: c5cf 5c3f 01d7 463e d8c0 a1bf b31f ca3e

model/lstm/while/lstm_cell/MatMul_2 f4 [16, 1]
0.6511009 0.9319517 -0.8223267 0.5121046 0.035673764 0.70280766 0.17383035 -1.9673084
-1.0123965 -0.8213039 -0.24537703 0.5000969 -1.0459098 -0.5887563 -0.85810876 -0.70216936
00000000: 8cae 263f 6394 6e3f 0184 52bf 4919 033f
00000010: a71e 123d 34eb 333f 9500 323e c3d0 fbbf
00000020: 3596 81bf f940 52bf 1e44 7bbe 5a06 003f
00000030: 5fe0 85bf bcb8 16bf 04ad 5bbf 5fc1 33bf

model/lstm/while/lstm_cell/MatMul_3 f4 [16, 1]
0.9269379 -1.5661038 -1.127567 2.0557575 1.3346504 0.726017 -0.5953891 1.3605355
0.95188075 -0.7994237 -0.71807235 0.9792896 -0.5873046 0.95356685 0.44266275 1.7322384
00000000: cd4b 6d3f 1776 c8bf 1e54 90bf 8891 0340
00000010: d3d5 aa3f 40dc 393f 6c6b 18bf 0726 ae3f
00000020: 75ae 733f 08a7 4cbf 97d3 37bf b9b2 7a3f
00000030: 9859 16bf f51c 743f b1a4 e23e fdb9 dd3f
